nlp/char-rnn-shakespeare-modules/shakespeare.pt (torch_old, 185148 bytes, 11 tensors)

weight f4 [100, 50]
000000 5b c1 bc be d5 6a 2a 3f 13 f1 87 3e 01 f2 88 3f
       -0.3686627 0.6656926 0.26551113 1.0698854
000010 7d 35 ea 3e 56 bc ad bf e9 07 29 3f a5 da 52 3f
       0.45743933 -1.35731 0.66027695 0.82364875
000020 e4 78 27 3f 61 22 a8 3f 6c 7f ed 3e 5d 0c a3 3d
       0.6541884 1.3135492 0.46386278 0.079613425
000030 1b 76 8b bf 01 70 ea bf 17 f3 62 3e 68 a4 b1 3f
       -1.0895418 -1.8315431 0.22163044 1.3878298
000040 9c 40 b5 bf c4 9e be 3e f6 29 bd 3f 37 3d 83 bf
       -1.4160342 0.37230504 1.477843 -1.0253056
000050 7b 2e f5 be d8 b5 e7 3f a4 6f 13 bf b8 5c 5d bf
       -0.47887024 1.8102369 -0.57592225 -0.864696
000060 5e 00 9e 3d 60 a8 45 3f 00 2f 43 bf 51 68 02 3f
       0.07714914 0.77210045 -0.7624359 0.50940424
000070 21 87 e8 bf 85 1b 22 c0 21 2d 57 3f 93 aa d8 be
       -1.8166238 -2.5329297 0.84053236 -0.42317638
000080 64 df dd 3f b5 64 6e bf 4f 8a 45 bf c7 2a 94 3f
       1.7333798 -0.93122417 -0.7716417 1.1575555
000090 2f aa de bf d3 d5 24 3f 63 89 cf 3e 5b a2 0f be
       -1.7395686 0.6438877 0.40534505 -0.14026777
0000a0 65 87 01 3f e8 e4 2e c0 aa 46 d3 be 2f 24 60 3f
       0.5059722 -2.7327213 -0.4126485 0.8755521
0000b0 a5 82 91 bc 3e 72 9d bf 75 de e4 3e 26 b0 c0 bf
       -0.017762491 -1.2300489 0.4470097 -1.5053756
0000c0 d7 84 78 bf f4 a3 75 bf 81 b3 db bf 79 c0 b4 be
       -0.970777 -0.959533 -1.7164155 -0.35303095
0000d0 88 c0 45 be 46 70 89 3e 96 e3 6c 3f 11 e5 ae 3f
       -0.19311726 0.2684347 0.9253477 1.3663656
0000e0 23 d5 99 bf e3 04 c3 3f d5 c1 f5 3f 16 51 dc 3c
       -1.2018169 1.5235866 1.9199778 0.026894134
0000f0 9a 2e 74 bf 6d 96 12 3f 5d eb 64 bf 48 16 cd 3e
       -0.9538361 0.5726078 -0.89421636 0.40056062
000100 ab a9 b8 3e ca 7d 17 bf 5f 49 bc bd 32 a5 22 bd
       0.36066946 -0.59176314 -0.09193682 -0.039708324
000110 3e 7b 77 3f 96 67 31 bc c9 75 06 bf 01 7e b0 bf
       0.9667243 -0.0108279195 -0.52523476 -1.3788453
000120 18 44 52 bf a2 09 01 3d e2 19 a4 3f 03 f6 3c bf
       -0.8213515 0.031503327 1.2820399 -0.73812884
000130 52 11 aa 3f f8 19 5a bf b8 7b 62 c0 f6 86 49 be
       1.3286536 -0.85195875 -3.5388012 -0.1968039
000140 5b 7b bf 3e 76 d4 80 be 11 99 c1 3f 9c 68 85 3e
       0.373988 -0.25162095 1.5124837 0.26056373
000150 db 45 91 3e 3f d2 f2 bf f5 ba d6 bf 73 e2 b5 bf
       0.28373608 -1.8970412 -1.6775805 -1.4209732
000160 54 19 c1 3d d4 35 23 be a3 8a c0 3f 75 48 77 3e
       0.09428659 -0.15938503 1.5042309 0.24148734
000170 cf 75 a3 3e d6 39 a8 be 0e 97 83 3f 29 2b 38 bf
       0.31925818 -0.32856625 1.0280473 -0.7194086
000180 45 b7 94 bf c9 1e 93 3e 34 28 45 3f f5 ef 00 3d
       -1.161843 0.28734425 0.7701447 0.03147884
000190 44 e5 9e 3f 8a 64 d6 3f 6f 88 1a c0 9f cd ee 3f
       1.2413716 1.6749432 -2.4145772 1.86565
0001a0 a0 ed 3a bf ab b9 bc bf 94 c7 f6 3f 2f 8a 36 bf
       -0.73018837 -1.4744161 1.9279656 -0.713046
0001b0 10 00 d6 bf f5 5a 38 be bf f6 13 3f 90 da 33 bf
       -1.6718769 -0.18003447 0.5779838 -0.70255375
0001c0 62 67 f9 bf a3 37 d0 3e 87 89 96 be 2f 4d 9c 3f
       -1.9484675 0.40667447 -0.294018 1.2211055
0001d0 cd b7 68 3f 09 bd a7 bf 7e 93 97 3e ef 69 d7 bf
       0.9090546 -1.3104564 0.29604715 -1.6829203
0001e0 b2 4f 01 bf da ad 47 3d bc 75 34 3f 32 a8 f5 3f
       -0.5051223 0.048749782 0.7049215 1.9191954
0001f0 35 e0 11 bf d9 d6 4e be 17 69 c0 bd a7 d9 c1 bf
       -0.5698274 -0.20199145 -0.09395044 -1.5144547
000200 1f 05 0d 3f e6 e1 9f 3e b5 27 55 bf f9 d0 00 3f
       0.5508594 0.31227034 -0.83263713 0.50318867
000210 26 1d ad 3f e2 a0 bc be 9d 43 d1 3e 02 db 57 bf
       1.352452 -0.36841494 0.40871897 -0.84318554
000220 b1 51 ec 3f 8b e8 df 3d f9 c7 9a 3f 6d f4 6c be
       1.846243 0.10933026 1.2092277 -0.23140116
000230 c3 67 ae bf 1a 7d 00 c0 74 19 f4 bd 73 3f 98 3f
       -1.3625416 -2.0076356 -0.11918917 1.1894363
000240 99 1e 5b bf 2d b1 9b 3f fc 70 12 bf 41 33 24 3e
       -0.85593563 1.2163445 -0.5720365 0.16035177
000250 4c 2d 5e bf e6 59 40 bf 32 18 58 3f d2 8b c3 3f
       -0.8678787 -0.75137174 0.8441192 1.5277045
000260 d5 71 72 bf 81 7d f1 bf bb 3b 98 3d 35 09 dd bd
       -0.94704944 -1.8866426 0.07433268 -0.10792772
000270 06 4a 0f be ab bd 06 c0 30 8c 03 3e f2 16 a2 bf
       -0.13993081 -2.1053264 0.12846446 -1.2663252
000280 6f f5 56 3f 4a 09 89 3e 7b 73 28 bf cc c6 91 bf
       0.8396825 0.267649 -0.6580121 -1.1388793
000290 b7 05 af bc 03 e6 18 bf 9d 69 96 be 12 90 2a bc
       -0.02136503 -0.5972597 -0.29377452 -0.010410326
0002a0 69 93 f9 be f0 db b4 bf 3c 7e ab 3f 42 b4 9e 3f
       -0.48745278 -1.412962 1.3397899 1.239876
0002b0 4f 2d 29 bf 6d cf b4 bf e2 eb bc bc a8 18 10 40
       -0.6608476 -1.4125801 -0.023061696 2.251505
0002c0 4a c1 16 bf e5 34 83 bf 57 cd f9 be 0a 4d 18 be
       -0.58888686 -1.0250517 -0.48789474 -0.14873138
0002d0 7c 7e 08 c0 a5 df 14 be ce 0a ba bf f4 10 ab be
       -2.13272 -0.14538439 -1.4534547 -0.33411372
0002e0 35 5e c9 3e 94 4c 80 bf ca 41 82 3f 4e 27 03 be
       0.39329687 -1.002337 1.0176327 -0.12807962
0002f0 21 35 42 bf e4 c0 8f 3e 2a 51 f2 be 71 4f d3 bf
       -0.7586232 0.2807685 -0.47327548 -1.6508619
000300 f8 a5 1e bf 04 6b ac bf b6 f1 5f be 48 8f f8 3d
       -0.61972 -1.3470159 -0.21869549 0.12136704
000310 39 ac 6b bf 52 15 4f bf fb bc 6e 3e 1d 95 bc bf
       -0.92059666 -0.8089191 0.23314278 -1.4733006
000320 6a 09 70 bf d0 3f 14 bf 73 a1 93 3f 72 de 98 3f
       -0.93764365 -0.5790987 1.1533645 1.1942885
000330 b8 e0 17 3e bc bd da 3f 49 ba df 3e eb 6d d6 bf
       0.14831817 1.7089152 0.43696812 -1.6752294
000340 70 99 83 3f 63 c1 f7 3e 70 53 f2 3f 3f de 9c 3e
       1.02812 0.4838973 1.8931713 0.3063831
000350 7f 5a 75 3e 7c 1a 25 bf 4e 5c a5 3f 3b 32 8f 3f
       0.23960303 -0.64493537 1.2918794 1.1187204
000360 0c b8 2b bf b4 7e 8c 3f 0c dc 34 bf ea c0 b2 3f
       -0.6707771 1.0976167 -0.70648265 1.3965123
000370 5f be 83 bd d9 73 9d bf 75 68 a8 bd e8 b2 8b bf
       -0.06432795 -1.2300979 -0.082230486 -1.0913973
000380 44 b9 6b bf d2 d4 64 3d 3c 2f 29 3f 8c 1b a9 bf
       -0.9207957 0.055867024 0.660877 -1.3211532
000390 ad b7 00 c0 39 ad b4 bf 9b 4f e5 3f 97 7e d6 be
       -2.0112107 -1.4115363 1.7914919 -0.41893455
0003a0 85 7a a9 3f af 24 cd 3f d9 5a 86 bf 36 12 17 3f
       1.3240515 1.602682 -1.0496475 0.5901216
0003b0 d0 9c 31 3f e3 41 aa 3e a3 cd ab 3e 0d fb 52 bb
       0.693799 0.33253393 0.33555326 -0.0032193095
0003c0 f2 06 26 be d9 07 02 be 95 c9 84 3e 5b 41 69 3f
       -0.16213587 -0.12698306 0.25935045 0.9111535
0003d0 a7 46 a6 3f 69 4f c4 3e fb 38 a0 bf c9 b4 46 bf
       1.2990311 0.38341835 -1.2517389 -0.77619606
0003e0 e1 7a c0 3e c5 82 90 bf 84 97 de 3e e2 f1 5e bf
       0.3759375 -1.1289908 0.43474972 -0.87087834
0003f0 f4 b0 7e 3d b9 08 ad 3f d6 2a 87 3e 55 f4 b9 3e
       0.062180474 1.3518287 0.2639987 0.36319223

weight_ih_l0 f4 [150, 50]
000000 ba b1 40 be f2 08 8a 3b 69 06 7c bf f2 8f 0e be
       -0.18817797 0.004212492 -0.9844728 -0.13922098
000010 e1 5f 7a bf 9e 02 07 3f b7 2b f0 3c ad b6 21 bf
       -0.9780255 0.5273837 0.02931772 -0.63169366
000020 41 19 13 3e a3 22 10 bd ec 0d fe be fc ed 1d bf
       0.14365102 -0.035189282 -0.49619997 -0.6169126
000030 01 57 84 3e a3 71 a2 3f 15 4a c0 3d f6 c7 5d be
       0.2584763 1.2690929 0.0938913 -0.2165831
000040 b2 09 51 bf 7d 50 aa be 38 6b 65 3f c9 35 9a be
       -0.8165542 -0.33264533 0.8961673 -0.3011916
000050 16 e9 4c 3f ca b1 c8 3e 86 62 d9 bd f5 6e 61 be
       0.8004316 0.39198142 -0.10614495 -0.22014983
000060 db 4b b5 3e a3 40 33 bf d4 fd 2f 3f 71 6b 2b be
       0.35409436 -0.700205 0.68746686 -0.16740204
000070 40 ce 89 b9 04 0c e8 be 77 98 fe 3d bd 16 b8 3d
       -0.00026284344 -0.45321667 0.12431424 0.08988712
000080 65 78 15 3e df 3a 79 be a7 e2 a1 3d 91 1c c3 3e
       0.14596708 -0.24338864 0.07904559 0.38107732
000090 7d 3c 59 be af f6 db bd f7 b5 89 3e 7c 2a d6 3e
       -0.2121448 -0.107404105 0.2689664 0.41829288
0000a0 f6 cd 06 be 3c 9c 8d be f7 6a 95 be 9e 56 43 be
       -0.13164505 -0.2765826 -0.2918317 -0.1907601
0000b0 2e f6 4c bf 6e 35 07 3f 01 8b b5 3e b6 8c b6 3e
       -0.8006314 0.528159 0.35457614 0.3565423
0000c0 f9 35 87 3e 27 16 5a 3d e8 eb c2 bc fa 9d de be
       0.26408365 0.053243782 -0.02379413 -0.43479902
0000d0 e8 fe 42 3f df dd b0 be b6 a4 03 3e 0e 9c cb be
       0.76170206 -0.34544274 0.12855801 -0.39767498
0000e0 39 18 0f 3f 19 5c c0 3e f9 df 8b bf 04 ae b4 be
       0.55896336 0.37570265 -1.0927726 -0.35289013
0000f0 b7 ab 88 bd e3 6c b6 3e 7c 07 41 3f 99 de ea 3e
       -0.06673377 0.3562995 0.75402045 0.45872954
000100 77 94 b7 be 33 f6 c6 be d8 b1 9a 3e dd 89 ed 3e
       -0.35855457 -0.3885971 0.3021381 0.46394244
000110 8e 60 40 3f 9b 36 d2 3e 9b ea 94 be 70 fb 21 3f
       0.7514733 0.41057286 -0.2908524 0.6327429
000120 35 66 bc 3e bd 49 e6 3d 6d 58 49 3f e1 00 51 be
       0.36796728 0.11244533 0.7865055 -0.20410492
000130 89 a4 62 3e b8 4d 93 be 90 54 3c bd 73 9d 26 3f
       0.22133078 -0.28770232 -0.045979083 0.65084
000140 09 d0 2d bf 18 e8 34 be 68 11 1c bd 3f 64 00 3f
       -0.6789556 -0.17666662 -0.038102537 0.50152963
000150 40 4e ef 3c 72 7b 93 3d 42 a4 00 bf bd a5 fc be
       0.029212117 0.0720128 -0.5025064 -0.49345198
000160 40 7f e8 3c a2 cf db be b4 ca 63 bf 7b 74 6a 3f
       0.02838099 -0.4293185 -0.88981175 0.91583985
000170 d3 da d9 be c8 e8 e8 be ba 8a 8c be 69 3c 09 3f
       -0.42549762 -0.45490098 -0.2744959 0.53607804
000180 69 e5 45 be 76 c3 bc 3e fb 75 30 bf a7 81 00 be
       -0.19325794 0.36867875 -0.68930024 -0.12549458
000190 fa b4 11 be 81 25 eb be 7e a9 93 3f ef ff 8d be
       -0.14229193 -0.4592705 1.15361 -0.27734324
0001a0 b0 9f 8c 3e 3c 46 8c bf c9 01 ad be 2b 95 38 3f
       0.27465582 -1.0958934 -0.33790424 0.7210261
0001b0 e1 d6 48 3f 36 ed 31 bf 98 38 b5 be 3e a4 61 3f
       0.7845288 -0.6950258 -0.3539474 0.8814124
0001c0 db 30 6d 3d 29 e0 80 be 35 56 1e 3f f0 19 67 3f
       0.05790792 -0.2517102 0.6185029 0.9027395
0001d0 db 07 7a 3f 4a 6f 10 be 2d 1f 07 3f 2e 2d 6a be
       0.97668236 -0.14104953 0.52781945 -0.22868797
0001e0 1c 39 ba 3e a8 f2 a4 3e c1 85 51 bf c1 90 91 be
       0.36371696 0.32216382 -0.8184472 -0.2843075
0001f0 d3 3d 32 3e c8 67 5e 3f 8f 0d 24 be 74 93 5e bf
       0.17406397 0.8687711 -0.16020797 -0.86943746
000200 f6 5b b5 3b af 57 9f 3f d3 fd 4b be 59 3d ea bd
       0.0055346442 1.2448634 -0.19921045 -0.114374824
000210 1c 38 1c be af 49 c7 3e 1c 3b 39 bf e2 66 9a bf
       -0.15255779 0.38923404 -0.7235582 -1.2062647
000220 55 fd 79 3d f9 d8 41 bf f5 b4 6b 3f 7f d6 95 bf
       0.061032612 -0.757217 0.92072994 -1.1706084
000230 3d ea 4b bd 42 a0 46 bd 2f 0d c3 bd a3 b8 16 3f
       -0.049783934 -0.048492678 -0.09523999 0.58875483
000240 82 57 eb bf c7 05 93 be bd ca 30 be d9 2f 0c bf
       -1.838608 -0.28715345 -0.17264839 -0.5476051
000250 72 98 76 3f 2b 3e 1a 3f 6f ac ee 3e 9d 51 86 3f
       0.96326363 0.6025111 0.4661593 1.0493656
000260 78 52 04 bf 00 ae ea 3d e0 05 07 3e 5c 0c 00 3d
       -0.5168834 0.11458969 0.13185835 0.031261787
000270 88 5c 02 3f 88 68 89 be b1 68 82 bf 16 99 88 3e
       0.5092244 -0.26837564 -1.0188199 0.26679295
000280 9f 48 0e bd 1c bb 46 bf f2 f1 d2 be 07 ac ce bd
       -0.034737226 -0.77629256 -0.41200215 -0.10091405
000290 29 0b 54 bf 41 4a 6d be c6 a7 28 3f 05 85 75 3e
       -0.8282953 -0.23172857 0.65881 0.23976524
0002a0 49 90 80 bf b1 6f e3 bc 87 fc ba 3d ab 70 24 3e
       -1.0044032 -0.02776322 0.09130197 0.16058604
0002b0 a2 74 5b 3f 2f 9c 04 be 36 8d 83 be 48 c4 3c 3e
       0.8572484 -0.12950204 -0.25693673 0.1843425
0002c0 ac 4d 91 be 3c cd bb be 66 d1 15 3f 9c 69 0f be
       -0.2837957 -0.3668002 0.5852264 -0.1400513
0002d0 1c 66 3f 3c 64 a4 6f 3e 8e da 55 be 60 8e 8f be
       0.01168206 0.23402554 -0.20884153 -0.2803831
0002e0 50 6f ba 3e 2c 55 96 3f 6a d2 d1 bd 55 ab 44 3e
       0.3641305 1.1744742 -0.102452114 0.19205983
0002f0 9b f8 54 bf 04 ae be bd 39 20 b0 bd 2c 45 33 bf
       -0.8319184 -0.093105346 -0.08599896 -0.7002742
000300 7e 2c cf 3d 95 5b 28 bf 12 bd 45 be 5f e5 cf 3e
       0.10115908 -0.65764743 -0.19310406 0.40604684
000310 8b 84 35 3f 75 ec a1 3e 37 d6 aa 3e ab 05 ae 3d
       0.7090537 0.31625715 0.33366558 0.08497175
000320 46 c5 06 be c5 a2 20 3f f9 c9 3d be 55 ed 56 3c
       -0.13161191 0.62748367 -0.18534078 0.013118108
000330 e6 be 19 3f f4 9b 5f be 1a 78 d3 be 1a ee 45 be
       0.6005691 -0.21836835 -0.41302568 -0.1932911
000340 d6 b5 e8 3e 85 ca 21 bd 60 35 bf 3d 18 28 b5 be
       0.4545123 -0.03949978 0.09336352 -0.35382152
000350 80 6b bd be d0 ca dc be d5 42 3c 3e fd 9c c3 be
       -0.36996078 -0.43123484 0.1838487 -0.3820571
000360 dc 2a ab 3e 1a c7 4b 3f fe 42 a6 be c4 b8 97 be
       0.33431137 0.7960068 -0.32472986 -0.29633152
000370 85 8f a6 3e 1b af 2a 3e cf 8b 97 be f9 7c cb 3d
       0.32531372 0.1666836 -0.29598853 0.09935946
000380 a2 e9 fc bd cc 11 99 3e 0b e2 e3 3d 57 76 02 3e
       -0.123492494 0.2989639 0.11127099 0.12740456
000390 0c 0f 3d be 6b 70 0d 3f 0e b6 02 3f f0 27 c1 3e
       -0.18462771 0.5524966 0.51059043 0.37725782
0003a0 22 e5 66 3e e5 f9 00 bf 31 96 2c be 27 1f 04 be
       0.22548345 -0.5038131 -0.16854168 -0.12902509
0003b0 76 f0 f6 be bb ba 73 3b eb 58 53 bf e3 45 7c be
       -0.48230332 0.0037190157 -0.82557553 -0.24636035
0003c0 f1 03 7d 3e 60 7b 25 bf d4 97 6b 3d e9 25 88 3e
       0.24708535 -0.6464138 0.05751784 0.26591423
0003d0 d2 7a 81 3c bc 1a e6 3b 44 c2 df be a3 70 6b 3e
       0.015805636 0.00702223 -0.437029 0.22992186
0003e0 ce 83 51 3e 7b 02 64 3d d7 dc f6 3e 93 9a a4 be
       0.20460436 0.055666428 0.48215362 -0.3214918
0003f0 63 86 71 be ef 01 08 bf c1 5e 94 bd c4 da 9a be
       -0.2358642 -0.5312795 -0.072446354 -0.3024503

weight_hh_l0 f4 [150, 50]
000000 4a 17 03 be 6c 8a a9 be 27 75 1d 3f ce ab 42 bd
       -0.12801853 -0.3311342 0.61506885 -0.047527127
000010 03 a3 26 be 28 a0 9d bf a1 94 80 3d 53 7c ad be
       -0.16273122 -1.2314501 0.06278349 -0.33883914
000020 36 05 80 3f 7c 79 5e 3f 6c 8b 89 3e f4 23 04 3e
       1.000159 0.8690412 0.26864183 0.1290434
000030 eb 65 82 bf 7b ec 73 3f 46 05 e1 3e 37 57 9d bf
       -1.0187353 0.95282716 0.43949336 -1.2292241
000040 6d 66 8d be 93 42 6b 3e 7e 2b b1 bb 27 12 21 bf
       -0.27617207 0.22974615 -0.005406796 -0.62918323
000050 b8 b6 0f 3f 5b 1f 6b bf 6e 3c a9 be c3 2e 96 bf
       0.5613818 -0.9184472 -0.33053917 -1.173302
000060 d4 c5 90 3f f0 7e ac bf 74 3f 7c 3f db 5c 78 bd
       1.1310372 -1.3476238 0.9853432 -0.06063543
000070 2b 0f bc be 6a 75 21 3f bd 64 a6 bf 59 4a 92 3f
       -0.36730322 0.63069785 -1.2999493 1.1428939
000080 be aa a3 3d b2 9b 18 3f e0 04 f5 3e 4e 5b a1 3f
       0.07991551 0.5961257 0.47855282 1.2605989
000090 9f 7c 7f 3e e5 21 1d 3e 02 58 8b 3f ac 9c 92 be
       0.24949883 0.15344961 1.0886233 -0.28635156
0000a0 99 4c 20 3f cb 54 3e 3f 3c 71 02 3f 08 ee 42 bf
       0.6261688 0.74348134 0.5095403 -0.76144457
0000b0 75 88 10 bf 59 05 43 bf 20 6f e9 3e a6 87 9c bd
       -0.56458217 -0.76180035 0.45592594 -0.076430604
0000c0 c5 cb 6f be 17 86 a3 be b1 9d 83 3e 16 2a 86 3f
       -0.23417576 -0.3193824 0.25706246 1.0481594
0000d0 b9 c8 94 be 13 9d 17 3f 62 80 ea 3e 92 eb 0b 3f
       -0.2905939 0.5922405 0.45801073 0.54656327
0000e0 c5 93 13 3d 97 8c df 3d ec 50 da be 8c f2 72 be
       0.036029596 0.10915487 -0.42639863 -0.23725337
0000f0 dd 88 a8 be 83 8e 02 3f 02 ff b5 3e 9e 93 42 3e
       -0.32916918 0.50998706 0.35546118 0.19001624
000100 bf d9 a8 bd a6 f7 8d 3e 92 08 8d 3d 7f ed f5 be
       -0.08244657 0.27728003 0.068864 -0.48032758
000110 b5 cd ab be 6f a9 9a 3e 59 1f 54 3e a8 cc 47 3f
       -0.3355538 0.30207393 0.20715083 0.78046656
000120 ce bd 9d be fc 6f d3 3e b9 71 49 3e ef 0f 0c 3f
       -0.30808872 0.41296375 0.19672288 0.5471181
000130 99 d1 3e 3f 4a d8 12 3f 95 8d 94 3e 87 d6 cb be
       0.7453857 0.5736128 0.2901427 -0.3981211
000140 4e ac 08 3f b9 d2 a8 3e 9d 2e ea 3e d5 5f b4 bd
       0.53387916 0.3297327 0.45738688 -0.08807341
000150 6b 15 70 bf b6 b6 72 bd 7f 1d 97 be 90 3c fe be
       -0.9378268 -0.059256278 -0.2951469 -0.4965558
000160 c3 be 45 bf f0 5a a9 3d a9 9d b7 be e8 06 d4 be
       -0.77244204 0.08269298 -0.35862473 -0.4141152
000170 f0 d2 3c be af a3 b8 3f 16 10 c4 3d e7 5b bc 3e
       -0.18439841 1.4424952 0.09573381 0.36788866
000180 8c 81 6b bd f4 e7 22 be 12 70 bd bd 7d 78 7f be
       -0.057496592 -0.15908796 -0.09249891 -0.24948306
000190 c2 5e 8b 3d f4 3e 01 3f 7a df 1f 3f 97 be f0 3d
       0.06805183 0.50486684 0.62450373 0.11755102
0001a0 1f a8 c2 be 80 dd c1 be 3b 1c cf 3e 30 b5 1c be
       -0.3801889 -0.37864304 0.40451226 -0.15303493
0001b0 c7 79 51 3e b8 ff 0d 3e 61 63 73 3e 87 04 08 3f
       0.2045661 0.1386708 0.23768379 0.5313191
0001c0 f2 d0 0a 3e b6 69 5e 3e e2 1f 27 3d 7e aa 0c 3f
       0.13556269 0.21720013 0.04080189 0.5494765
0001d0 a5 ce 1d be 5c ae 3e bc 08 e3 2f be c5 0c c5 3d
       -0.1541086 -0.01163825 -0.1717645 0.09621576
0001e0 ad 68 a9 3e dc 4b 87 be df f5 15 3f 86 06 24 be
       0.33087674 -0.26425064 0.58578295 -0.16018113
0001f0 a4 09 86 3c bc 80 0d bf 3f 81 5e bf 05 27 cf be
       0.016362019 -0.5527456 -0.86915964 -0.40459457
000200 f8 0a a7 3e 0f e1 12 3f fc cb 44 bf 6d 8f ff bd
       0.32625556 0.5737466 -0.76873755 -0.12478528
000210 c3 4c 2a 3f c2 ef d9 bd e6 7c 1d 3e 7b 6a 2f bf
       0.6652338 -0.10641433 0.15379676 -0.6852185
000220 65 c8 c7 be 3f 84 85 3e d3 8d 65 3e 48 69 09 3f
       -0.39020076 0.26077458 0.22417383 0.5367627
000230 d3 2f c1 bd 43 88 54 be c1 b1 82 bd c7 2a 14 bf
       -0.0943295 -0.20755105 -0.0638156 -0.57877773
000240 f0 fb 33 3e 9c c6 e9 3d e2 48 0e be 2d 12 a9 be
       0.17576575 0.11414835 -0.1389499 -0.3302168
000250 73 1b 02 be a9 6f e6 3e d4 81 0b bf e1 3a ba 3f
       -0.12705784 0.45007065 -0.54494977 1.4549218
000260 34 b4 75 bf 16 8f 88 3d b7 73 46 3f d9 cf d3 3e
       -0.95978093 0.066679165 0.77520317 0.41369513
000270 8e a9 17 bf 6d 64 c8 be 58 ae 52 be 49 ed 86 3f
       -0.59243095 -0.3913912 -0.2057432 1.0541164
000280 d0 a9 10 be 0d f6 50 be ea 5c 43 3e 5a df 2d 3f
       -0.14127278 -0.20406361 0.19078413 0.6791893
000290 91 07 39 bd 14 96 b0 3e 20 61 ce 3e 2e 24 60 bf
       -0.04517323 0.344895 0.40308475 -0.87555206
0002a0 5f 19 0b 3e 37 c5 0e 3f f0 dc 4e 3e fd 3d 7c 3e
       0.13583897 0.55769676 0.20201468 0.24633022
0002b0 1b 83 94 be 47 6a 44 3f bd 2c d6 be f5 52 ce 3e
       -0.29006276 0.76724666 -0.41831008 0.40297666
0002c0 3a fd d1 be 0c ab 9d be 09 12 1a bf f3 05 4d 3f
       -0.4101351 -0.3079456 -0.6018377 0.800872
0002d0 df 67 3f 3f 7d 5e b8 3d 32 36 53 be 94 56 3d bf
       0.7476787 0.09002397 -0.20626143 -0.7396023
0002e0 43 8d 89 bf 5b 56 3d be 2e 0b 36 bf 47 ca ad be
       -1.0746235 -0.18489973 -0.7111081 -0.33943388
0002f0 21 06 a1 be 17 f8 99 3e 03 48 77 3e 97 05 80 bf
       -0.31449988 0.3007209 0.24148564 -1.0001706
000300 bc 1b a4 bc 70 82 ba 3f d3 64 1a 3e 34 9d af 3e
       -0.020032756 1.4571056 0.15077524 0.34299624
000310 6f 27 ca be 59 0c 96 3e c1 3e 10 3f c9 8e 1a bf
       -0.3948321 0.29306296 0.56345755 -0.6037412
000320 5a 60 63 3c d7 f3 04 be cc 06 54 be 15 b8 90 3f
       0.0138779525 -0.12983643 -0.20705718 1.1306177
000330 a9 73 a0 3f b7 c9 ca 3e 38 ff 6a be 90 bc c1 be
       1.2535297 0.3960702 -0.2294892 -0.37839174
000340 54 28 34 be 4c 23 0a 3f 29 be 06 be 70 63 c3 3e
       -0.17593509 0.5396011 -0.13158478 0.38161802
000350 9a a8 ab 3e 83 27 92 be b8 d3 15 bf 8a 1d 83 bd
       0.3352707 -0.2854577 -0.5852618 -0.064021185
000360 15 6e 6a 3f 3b a1 ca bd e0 1a 04 bf 76 d6 0a 3e
       0.9157422 -0.098940335 -0.5160351 0.13558373
000370 a1 22 8f bc 79 a9 a6 be 98 17 70 bf ae ae 23 be
       -0.017472567 -0.32551172 -0.93786 -0.15984604
000380 c1 86 e9 bc df 15 d5 be 06 dd ae 3f dc d6 d2 bd
       -0.028506638 -0.4161825 1.3661201 -0.102948874
000390 f6 47 a5 bc c5 db ea 3e 64 69 20 bf dd 2f a1 bd
       -0.020175915 0.45870796 -0.62660813 -0.07870457
0003a0 dc 2e 49 be 16 98 30 bf 46 1e 81 be d3 e3 81 3f
       -0.19646782 -0.68982065 -0.2521841 1.0147651
0003b0 0c 1e ab be dd c2 1a 3e 22 4c dc be 7d 76 2f 3d
       -0.3342136 0.15113397 -0.43026835 0.04283761
0003c0 80 91 e5 3d 61 33 28 bf 3b ce 22 bf c3 26 73 bd
       0.112093925 -0.657034 -0.6359593 -0.059363138
0003d0 a2 65 11 3e aa 66 c7 be 20 97 44 bf c0 d8 98 3e
       0.14198926 -0.38945514 -0.767931 0.29852867
0003e0 32 60 00 3f f9 06 70 bf 04 4f ff 3d a4 4a 61 3e
       0.5014678 -0.9376064 0.12466243 0.2200113
0003f0 1e e6 ad 3e 42 f2 06 3e 65 e7 29 be 3e 5b e0 bf
       0.33964628 0.13178352 -0.16592176 -1.7527845

bias_ih_l0 f4 [150]
000000 a4 92 27 3f 3f 0d ec be d7 a2 94 3d 82 82 62 bd
       0.6545813 -0.46103856 0.07257622 -0.055300243
000010 9d 31 7e be 33 d6 06 bf 47 c0 60 be 27 0d e5 be
       -0.24823613 -0.5267059 -0.21948348 -0.44736597
000020 21 c0 15 bf 96 9c 67 3d 70 74 a8 bd 44 e3 12 3f
       -0.5849629 0.056545816 -0.08225334 0.5737803
000030 2e e2 0e bf 7d 3a 6d be e8 08 67 be 50 db af bd
       -0.5581387 -0.23166843 -0.22561991 -0.085867524
000040 2b 90 66 bf f1 50 30 bf 0b ac 27 be 16 46 6f 3e
       -0.9006373 -0.68873507 -0.16374223 0.2336658
000050 92 4b 95 be 03 15 05 bf 5b 5e c0 bd fd cd 05 bf
       -0.29159218 -0.51985186 -0.09392997 -0.5226744
000060 df a9 c1 be e7 26 f4 be 1f 70 de be be d7 4a bd
       -0.37824914 -0.4768593 -0.43444917 -0.049522154
000070 a8 9b 1b 3f 9e e9 5a 3e e9 4f a8 be 46 c7 0a bf
       0.6078439 0.2137818 -0.32873467 -0.5421032
000080 8a 7d 76 bd a7 5b af be 33 ce 9a 3d ae b8 65 be
       -0.060178317 -0.34249613 0.07558861 -0.22433731
000090 01 39 7f be f7 a7 e1 be b3 db 45 bf 5e f5 61 be
       -0.24924089 -0.4407346 -0.7728836 -0.22066256
0000a0 41 c1 e9 3c e9 2f 28 3e 8a b4 e2 3c 69 a5 2c bf
       0.028534533 0.16424526 0.027673978 -0.67439896
0000b0 2e ba 8a bc 6e 94 95 3e 6e 80 13 3e 2a 1b 0a bf
       -0.01693448 0.29214805 0.14404461 -0.539477
0000c0 d0 62 9b be 08 6f 86 be f4 a8 16 bf 13 50 43 be
       -0.30348825 -0.26256585 -0.5885155 -0.19073515
0000d0 0a 6f 70 be 64 cd 3c bd af 16 5d bd 5b cc be bf
       -0.23479858 -0.046094313 -0.05397671 -1.4906114
0000e0 c3 8f 1c be 70 1c 09 be 50 ac 08 bf 92 4a f2 be
       -0.15289216 -0.13389754 -0.5338793 -0.47322518
0000f0 37 c1 bd 3d 24 91 5d be c2 c5 29 bf bb 7f 8d be
       0.092653684 -0.21637398 -0.6631738 -0.27636513
000100 fe b2 10 bf a2 5d 4b bf 77 7b 01 bf 48 2c 2a bf
       -0.5652312 -0.7943975 -0.5057902 -0.6647382
000110 2d 35 9e bf 9b fd 50 bf 5b c6 71 bf 2b ce 38 bf
       -1.2359978 -0.8163697 -0.9444329 -0.7218959
000120 68 e4 39 bf cd 6d a9 be b5 77 c3 be c9 49 63 bf
       -0.72614145 -0.33091584 -0.38177267 -0.8878446
000130 2d 2d 8f bf 17 04 2c bd 4c 14 e8 be 32 de 87 bf
       -1.1185662 -0.041996088 -0.45327985 -1.0614684
000140 61 3a 08 bf ac 5f 82 3e 5f 3d 04 bf cd a0 68 bf
       -0.5321408 0.25463617 -0.51656145 -0.9087036
000150 c6 e7 c1 be f4 bd b8 be 5c 21 27 bf ef da d3 3e
       -0.37872142 -0.36082423 -0.6528528 0.4137797
000160 d5 e9 8d bf cf 52 02 bf 64 41 e0 be 54 a6 57 bf
       -1.1086985 -0.50907606 -0.4379989 -0.8423817
000170 4f eb b0 bf bc f4 45 bf 03 07 00 bf 24 79 ae be
       -1.382181 -0.7732656 -0.500107 -0.34076798
000180 7d 09 08 bf f0 1c 2c bf 97 f6 f5 be c2 92 bf be
       -0.5313948 -0.67231655 -0.48039696 -0.37416655
000190 85 d7 69 bf 0d 54 1e be 35 58 92 3d e3 d3 fb 3e
       -0.9134448 -0.1546175 0.071457304 0.49185094
0001a0 aa 91 9b 3e c2 4f 4c 3d f7 6d fe be 20 47 eb 3e
       0.3038457 0.04988075 -0.49693272 0.45952702
0001b0 83 91 97 be bf f5 43 3e b5 3e 79 3e a9 cf 85 be
       -0.29603204 0.19136713 0.24340327 -0.26134995
0001c0 e8 60 3b be 8c 18 e8 3e 09 93 03 3f 1f 93 c5 be
       -0.18298686 0.45331228 0.5139623 -0.38588807
0001d0 e1 09 e9 be 4f 4e 49 be 3e 90 d9 3e 63 b3 d5 be
       -0.4551535 -0.19658779 0.4249286 -0.41738424
0001e0 b4 03 4f be 7c 52 cc 3e bd 84 5b be 8e de 8b 3e
       -0.20216256 0.3990668 -0.21437354 0.27318233
0001f0 16 71 18 bc c2 bc cf 3e 0e cd 09 bf f4 bc 09 be
       -0.009304306 0.40573698 -0.53828514 -0.13450986
000200 4f 1c f6 3d 1e 46 22 3e 74 2e a8 3e 3b 5c a4 3e
       0.12017118 0.1584706 0.3284794 0.32101616
000210 00 b4 ce 3d 98 3a 37 3f 48 66 2f bf 8d fb d5 be
       0.10092926 0.7157378 -0.68515444 -0.4179348
000220 80 1b 60 3e a6 34 b9 3e 3a 1f c2 be 03 5e e1 bd
       0.2188549 0.3617298 -0.3791445 -0.110042594
000230 44 07 7b 3e 15 1a 2e 3f 7e 04 88 3c 5e d9 05 be
       0.2451449 0.6800855 0.016603705 -0.130712
000240 03 3b 69 bc 8a 28 b2 be 6f 03 0f 3f a4 d2 54 be
       -0.014235261 -0.34796554 0.55864614 -0.20783478
000250 ad 4e 0d be 21 bb 78 bf
       -0.13799544 -0.97160536

bias_hh_l0 f4 [150]
000000 c4 f0 32 3f b3 fe 88 be d1 b3 a5 3d 60 e9 74 3b
       0.6989863 -0.2675682 0.08090938 0.0037370548
000010 3b 24 86 be a3 58 e8 be 77 a6 81 bd 52 5b 03 bf
       -0.26199517 -0.45380124 -0.06330579 -0.5131122
000020 cf 9a 26 bf ca 1d 79 3e 40 d1 cb bd 2f 8f b1 3e
       -0.6507997 0.2432777 -0.09952021 0.34679553
000030 71 6a 30 bf 53 ea 08 be 1d 29 bc be 45 00 79 bc
       -0.68912417 -0.13370638 -0.36750117 -0.015197818
000040 3d c6 61 bf 89 cf 15 bf 40 5f 71 be 68 4f 72 3e
       -0.8819311 -0.585198 -0.23571491 0.23663104
000050 f8 b3 83 be 9f b5 e7 be 03 8f 6b be ef 33 c5 be
       -0.25723243 -0.45255753 -0.23003773 -0.38516185
000060 f3 bc 64 be 39 40 0e bf 5c 99 4f be 5a ce 08 be
       -0.22337703 -0.55566746 -0.20273346 -0.13359967
000070 18 77 47 3f 2e 22 96 3e 38 0a 03 bf 3e 06 1a bf
       0.779161 0.29322952 -0.5118747 -0.60165775
000080 93 c0 89 3d 79 99 a4 be 6f 7b 2b 3d 8d 01 5c bc
       0.06726184 -0.3214834 0.041865762 -0.013428104
000090 19 9a cd be d8 13 a4 be 57 0d 5c bf 9b ac 3d be
       -0.4015663 -0.3204639 -0.85957855 -0.18522875
0000a0 78 3f 76 3e a8 5d c0 3d 21 64 4b be 6d 13 36 bf
       0.24047649 0.093928635 -0.19862415 -0.7112339
0000b0 6f 22 b7 bc e3 a4 15 3e 6a 13 0a 3d 7b 43 26 bf
       -0.022355286 0.1461368 0.03370992 -0.6494672
0000c0 f8 d2 36 be ba ff 97 be 68 4f ff be bf 86 d1 bd
       -0.17853916 -0.2968729 -0.4986527 -0.10230779
0000d0 39 de 0b be 0a ad 2e be 8a 27 c8 3d c5 e5 c4 bf
       -0.1365899 -0.17058197 0.097731665 -1.538262
0000e0 7b 8c 7c be ac 4e 84 be f2 45 30 bf 3a 49 e8 be
       -0.24662964 -0.25841272 -0.6885673 -0.45368367
0000f0 fd 49 e9 bd f1 2d d7 bc f5 0b 25 bf 06 ea cc be
       -0.11391065 -0.026267024 -0.6447137 -0.40022296
000100 73 16 14 bf 6e b0 62 bf fe fa 1b bf cd 60 18 bf
       -0.57846755 -0.8855046 -0.6092986 -0.59522706
000110 e5 b9 96 bf 99 22 41 bf 7f 22 5f bf b5 1c 50 bf
       -1.177548 -0.75443417 -0.8716201 -0.81293803
000120 22 8d 3a bf 53 61 a2 be e3 c0 c7 be 5b 1b 61 bf
       -0.728716 -0.31714877 -0.39014348 -0.87932366
000130 8d 58 8a bf 19 37 47 3e b1 6c fb be 57 4c 87 bf
       -1.0808274 0.19454612 -0.49106362 -1.0570172
000140 e9 cc 28 bf 37 12 b1 3e 4a e9 1e bf ad 12 37 bf
       -0.6593767 0.3458421 -0.6207472 -0.7151287
000150 1e cc 80 be 5b ae 08 bf b8 a6 45 bf 5c e1 9b 3e
       -0.2515573 -0.53391045 -0.7720752 0.30445373
000160 dd 61 87 bf bf a1 1a bf b5 ad 62 be 7b 08 1c bf
       -1.057674 -0.60403055 -0.22136576 -0.6095044
000170 99 a0 b6 bf 3e 75 37 bf 79 ca 06 bf 70 7b 58 be
       -1.426776 -0.7166327 -0.526527 -0.21140838
000180 19 88 f3 be 27 c7 29 bf 7a 1a 0c bf bc 18 56 be
       -0.47564772 -0.6631951 -0.547279 -0.20907873
000190 80 bd 78 bf d6 0f 22 bf 9c 3e 0a 3e f9 ec e7 3d
       -0.97164154 -0.63305414 0.13500446 0.11324496
0001a0 be 32 ae 3e 27 6e 70 be 7f 99 40 be d6 d5 43 3e
       0.34023088 -0.2347952 -0.18808554 0.1912454
0001b0 7d 56 cd be 1b c6 82 3e 04 99 96 3e ad 5d a9 be
       -0.40105048 0.25541767 0.29413617 -0.3307928
0001c0 2d 04 46 bd 5e ef 14 3f 08 a0 ca 3d aa db 20 bf
       -0.048343826 0.58177745 0.09893805 -0.6283518
0001d0 e9 61 9e be e2 6c e1 3e 4e 18 88 3e e0 e0 23 bf
       -0.30934075 0.44028383 0.26581043 -0.64015007
0001e0 61 65 78 be 0a aa e4 3d 66 08 d5 3e 81 36 82 be
       -0.24257423 0.11165245 0.4160797 -0.25432208
0001f0 01 b0 10 be c0 68 55 3e 7d b6 97 bd 0b 7f f8 be
       -0.1412964 0.2084074 -0.07407854 -0.48534426
000200 45 8b c1 3d d9 cc 18 3f 6e 20 f4 be 4d 79 11 3f
       0.09450392 0.5968757 -0.47680992 0.56825715
000210 d6 c9 96 bc 13 23 56 3f b6 b4 ac 3d 84 a0 25 3d
       -0.01840679 0.8364727 0.084329054 0.040436283
000220 c3 63 ff 3e e0 20 cc 3e 55 27 c8 3d 3a d1 4d be
       0.498808 0.39868832 0.09773127 -0.20099345
000230 dc 70 78 3e d8 c1 13 3f 65 af 56 3e ec cf b5 bd
       0.24261802 0.5771766 0.20965345 -0.088775486
000240 03 64 63 bf ed b8 15 bf 4e 14 bf 3e ed 10 d1 bd
       -0.8882448 -0.584853 0.3732018 -0.102083065
000250 e6 b6 80 be 8b 53 a8 3e
       -0.2513954 0.32876238

weight_ih_l1 f4 [150, 50]
000000 e8 5d 89 3e 7b 45 ee be 78 7c b0 3d 0b a1 b3 3e
       0.26829457 -0.46537384 0.086174905 0.35083804
000010 39 45 cc bd e4 af 92 be 67 ca 86 3e 02 08 6c 3e
       -0.09974141 -0.2864982 0.26326296 0.2304993
000020 c8 99 11 3b c5 d0 8a 3e 96 47 a2 3e 4c 7e 0f 3e
       0.0022216905 0.27112404 0.3169524 0.14013022
000030 0e eb aa 3e fe 29 68 bf 24 0a a8 3e 54 8c b6 3e
       0.33382457 -0.90689075 0.32820237 0.35653937
000040 e3 cf ee 3f 7e 54 4d be b8 ef 19 bf d7 36 8d 3f
       1.8657192 -0.20051762 -0.60131407 1.1032361
000050 7e 58 4b be 75 25 f2 be 2d 94 87 bf fe 42 cb be
       -0.19857976 -0.47294202 -1.0592095 -0.39699548
000060 2f 74 83 bf 88 ba 2d 3e 53 2b a9 3f b6 27 2e be
       -1.0269831 0.16965687 1.3216347 -0.17007336
000070 8e fb 0f 3e 94 ca d2 be a2 b3 46 bf 48 77 67 3d
       0.14060804 -0.4117018 -0.7761785 0.05651024
000080 38 1f 19 3f 87 08 11 3e 26 66 4e 3f 78 f9 e9 3e
       0.5981326 0.14163409 0.80624616 0.45698142
000090 13 57 5b be 55 aa af be 71 c3 1c bf 38 2d 59 be
       -0.21419935 -0.3430964 -0.6123572 -0.21208656
0000a0 9c 3d cf bc 3e a0 1c bf 31 a7 1f bf 57 e6 b3 be
       -0.025297932 -0.6118201 -0.6236449 -0.35136673
0000b0 15 f5 17 3f 80 f1 3f 3e 45 37 80 bd df 9c 1d 3f
       0.5935834 0.18744469 -0.06260542 0.6156749
0000c0 fc 22 a4 bd e4 50 39 3d fc fa 13 be de 33 24 bf
       -0.08014485 0.04524316 -0.14451212 -0.64141643
0000d0 18 37 1e 3f 26 07 1d 3f d5 5b 54 bf de 27 0d 3f
       0.61802816 0.6133903 -0.82952625 0.5513896
0000e0 61 f4 44 bf 10 9c 63 3f 9e 9b 67 bf 87 dd da 3d
       -0.7693539 0.8891001 -0.9047183 0.10686784
0000f0 6b 51 b2 be a1 81 ac 3e 6b 26 59 bf e6 c5 08 3f
       -0.34827742 0.3369265 -0.84824246 0.5342697
000100 b4 66 b0 bf 2c d5 f8 3b f5 89 8a be a4 67 19 be
       -1.3781343 0.0075937714 -0.27058378 -0.14980942
000110 6a 1c cf be 1b 4e af 3e 2b 76 30 3e 11 41 b7 bf
       -0.40451366 0.34239277 0.17232578 -1.4316732
000120 67 4a 7c bf 56 e1 82 3f c7 33 c3 3e 45 af b5 bf
       -0.9855103 1.0225017 0.3812544 -1.4194113
000130 ce 87 93 be 1a 5f 8b bf 74 65 b3 be 2c 5d 91 3d
       -0.28814548 -1.0888398 -0.3503834 0.07097849
000140 12 fd 9e be a9 a2 53 3f a1 71 2c 3f 2e 91 7c be
       -0.31052452 0.82670075 0.67360884 -0.24664757
000150 1a b3 33 bf 22 38 39 3f 18 f7 6d 3f 42 c5 4b 3f
       -0.7019516 0.72351277 0.9295516 0.79597867
000160 e3 c4 42 3f 11 94 36 be d0 5a fb 3d b7 2c 66 bf
       0.76081675 -0.1782992 0.122731805 -0.8991198
000170 40 b2 8e bf 68 54 39 3e 45 04 5d 3e 5c 0f e7 3e
       -1.1148148 0.18098605 0.2158366 0.45128906
000180 18 47 00 bf d1 2c f3 bd b4 7c 64 bf 07 ec 6c bf
       -0.5010848 -0.118737824 -0.8925278 -0.9254765
000190 54 9a bd bd 73 0c 45 3f 4d 2e 70 bf 29 04 d1 3e
       -0.092579514 0.7697212 -0.9382065 0.40823486
0001a0 58 21 86 bd c6 aa a6 3e 78 0a a5 3d ab 5a 83 bd
       -0.065493286 0.32552165 0.080586374 -0.06413778
0001b0 f0 cc cb bf 53 28 b1 3d 68 69 c2 bf 3f 61 92 bf
       -1.5921917 0.08650269 -1.5188417 -1.1435927
0001c0 ac 68 27 3e b5 fa a0 3d f3 63 7a 3e 44 5f bc 3e
       0.16348523 0.078603186 0.2445219 0.36791432
0001d0 05 ca 48 3e 7d 4a ec 3e b1 75 21 3e ed f2 57 3e
       0.19608314 0.4615058 0.15767552 0.21088763
0001e0 b7 50 28 3e 86 ff 48 3f 31 1e b7 be 77 01 19 3f
       0.1643704 0.785149 -0.35765222 0.5976786
0001f0 e0 7f bf 3e f8 5d 98 3f b0 8e f5 3f 2b 75 3c 3e
       0.37402248 1.1903677 1.918417 0.18404071
000200 55 cf 85 be a7 48 8e bf 31 4d 81 3c 2e 04 98 3d
       -0.26134744 -1.1115922 0.015783878 0.07422672
000210 b2 c3 6c be ea 60 a2 3d 62 c9 ef be 04 ea 0f bf
       -0.23121527 0.07928641 -0.4683333 -0.56216455
000220 55 96 70 bd 17 d7 89 3e e2 62 b4 bf 82 6d ef 3e
       -0.058737118 0.26921913 -1.4092677 0.46763235
000230 88 ee 80 be 2a eb ea be 03 51 61 bf f9 89 e1 3d
       -0.25181985 -0.4588254 -0.8801424 0.11012644
000240 82 32 1a bf 2d 5d 87 3f d4 c7 56 3d 24 36 ff be
       -0.6023332 1.057531 0.052436665 -0.49845994
000250 c4 a2 54 3f c6 45 10 3f 5c fb de 3d 36 16 37 bf
       0.8306086 0.56356466 0.10887787 -0.71518266
000260 ce 84 b7 be 3e f0 b4 3e 7e 43 cf be 62 50 8d be
       -0.3584351 0.3533954 -0.4048118 -0.2760039
000270 59 44 ef bd 0c 15 fb bd ed b0 bd 3e b7 ad 44 3f
       -0.11682958 -0.12259874 0.37049046 0.7682757
000280 67 d7 4a 3e 03 68 4f 3f 8f 23 19 3f 82 34 e5 be
       0.19808732 0.81018084 0.59819883 -0.44766623
000290 2a a3 50 bf a0 63 66 3e bd bb f3 3e ef 5e 0f 3f
       -0.8149897 0.22498941 0.4760417 0.5600423
0002a0 9a 71 fb 3d 3a 41 0c 3f 3c cb d9 bb fe 8c 8b 3e
       0.12277527 0.5478703 -0.006646542 0.27256006
0002b0 8f 74 3b bf ec c7 f3 bd 90 3b 19 3e 3a 40 85 bf
       -0.7322473 -0.119033664 0.14964128 -1.0410225
0002c0 cd 59 da bd 3d d8 35 bf d1 b1 25 3c eb 20 ed 3e
       -0.106616594 -0.7103308 0.0101131955 0.46314177
0002d0 77 78 24 bf 3d d6 3e 3d 27 6e d6 3e 53 2d 14 3d
       -0.64246315 0.046591032 0.41880915 0.036176037
0002e0 c5 18 95 bf 82 91 38 3e 57 44 a3 bc c2 df 6e 3c
       -1.1648184 0.18024257 -0.019930048 0.014579715
0002f0 6a d1 af 3e c2 80 43 3e ad 6c f2 be 9d 4e b7 3d
       0.34339458 0.19092086 -0.47348538 0.08950541
000300 09 01 70 3f d5 5e 21 3e 43 b1 b7 bd 58 02 0c bf
       0.9375158 0.15758832 -0.08969357 -0.54691076
000310 c0 f7 1d bf 9f dd e1 bd 80 2a 0b 3f 93 f6 85 3c
       -0.6170616 -0.11028599 0.54361725 0.016352927
000320 b1 fd 00 bf b2 52 20 3d 7e 1a 8b 3d 82 9c ff bd
       -0.503871 0.039141364 0.06792162 -0.12481023
000330 a2 4e 28 3c 20 c8 0d bf a9 66 67 bd 50 96 86 3e
       0.010272654 -0.5538349 -0.05649439 0.26286554
000340 93 6b 98 3e f6 74 87 3e 1d b0 94 be 92 3e 8c be
       0.29769573 0.26456422 -0.29040614 -0.27391487
000350 87 83 08 bf cd c2 e9 bd 1c 61 97 bd 0c d7 61 be
       -0.53325695 -0.114141084 -0.07391569 -0.2205469
000360 a3 fa 12 be 2b 0b 27 3f 8c f4 b3 3d 15 7c ba be
       -0.14353423 0.65251416 0.08786878 -0.36422792
000370 4b 9a 0d 3d a6 07 1c bf 96 43 e0 bd b9 4a f6 bb
       0.034570973 -0.6094917 -0.10950391 -0.007516232
000380 43 19 99 3e d9 ff 71 3d 0d d9 eb bd ee 3d 11 be
       0.29902086 0.059081886 -0.115160085 -0.1418378
000390 da 9d 78 be 43 79 53 3d 06 cf 15 3d ef 9f 20 3e
       -0.24278966 0.051629316 0.036574386 0.1568601
0003a0 be 69 b2 3e 68 9b 1f 3f cf f2 f3 bd 39 28 9a 3e
       0.348463 0.62346506 -0.119115464 0.30108812
0003b0 65 e2 89 3e 84 ea 2b be 46 29 57 3e e4 be 50 be
       0.26930538 -0.1678868 0.21011838 -0.20385319
0003c0 63 9a 46 bd 75 0c 82 3c bc a8 bf bd 67 ff 4e 3e
       -0.04848708 0.01587508 -0.093583554 0.20214616
0003d0 38 1c 3e be 01 b3 b0 bb 27 69 9e bc 75 c5 49 bf
       -0.18565452 -0.0053924327 -0.01933725 -0.7881692
0003e0 5b a9 1a 3f 70 48 5b 3d ee 8c 33 bd 12 8c 19 bf
       0.60414666 0.05353588 -0.043835573 -0.59979355
0003f0 fc f7 95 be e5 b2 38 3f 8e df e3 bf a7 28 ee 3e
       -0.2929076 0.7214797 -1.7802598 0.4651539

weight_hh_l1 f4 [150, 50]
000000 17 9e 14 3d ce bc 1b 3e 02 cd a6 3b 85 c0 5d bc
       0.03628358 0.15208742 0.005090357 -0.01353467
000010 09 d1 ee be 9b dd 11 bd be 19 f4 bd a6 86 44 be
       -0.46643856 -0.03561173 -0.119189724 -0.1919199
000020 d5 29 39 be b6 5b 12 bd 4b 38 18 3e 61 a6 af bd
       -0.18082364 -0.035731994 0.14865224 -0.08576656
000030 34 59 39 3e c2 57 f0 be 45 62 04 be 90 eb ca bd
       0.18100435 -0.46941954 -0.12928112 -0.09908211
000040 62 16 e6 3d 10 39 01 3f 56 cd bb 3e a2 83 d6 be
       0.11234738 0.50477695 0.36680096 -0.41897303
000050 69 f3 57 be 8e 1d a7 3c 47 29 0f bf 7a 64 d8 3d
       -0.21088947 0.020399835 -0.5592236 0.105660394
000060 96 d9 1f bf 7f ed c0 be 8d b4 df be 43 24 da be
       -0.62441385 -0.37681195 -0.43692437 -0.4260579
000070 0b e1 72 3f 57 a0 3c bd 5d 39 23 be c3 58 55 bd
       0.9487464 -0.04605135 -0.15939851 -0.052086603
000080 40 d5 9e 3e 74 d8 e6 be 02 a3 b9 3e f5 97 c4 be
       0.31022072 -0.45087016 0.36257178 -0.38397184
000090 d5 b5 3e 3f c9 0f 22 3e 40 7b a9 bd 87 0a 69 3e
       0.74496204 0.15826334 -0.08275461 0.22757922
0000a0 ae 0f d1 be 52 8a 07 3e 29 9c 78 bf 41 54 71 3e
       -0.40832275 0.13236359 -0.9711328 0.23567297
0000b0 fd fb 02 bf 6b 61 6a 3e 61 d2 fa 3d 08 c0 6c 3f
       -0.51165754 0.22888725 0.12247158 0.92480516
0000c0 3b c6 04 bf f9 19 97 be 0a 27 3c 3a d7 94 63 3e
       -0.51864976 -0.29512003 0.0007177448 0.22224747
0000d0 a7 4a 51 bd d2 3b dc 3e 02 75 a4 bd 7f f1 8a bd
       -0.051096585 0.4301439 -0.0803013 -0.06784343
0000e0 65 3e 08 bf e3 6f 16 bf a4 04 0f 3f 95 ea 34 3f
       -0.53220206 -0.58764476 0.55866456 0.70670444
0000f0 90 9a 55 b9 64 ad ed 3e fc 8e ea 3d df 9d b3 bd
       -0.00020370842 0.4642135 0.11453053 -0.08770346
000100 e7 a6 d6 3d 2b 40 21 be f6 08 36 3e c4 59 65 3f
       0.10481053 -0.15747134 0.17776856 0.89590096
000110 95 d2 bb 3e 3b 3b 66 bf cb 5b d9 3d 29 69 8d 3f
       0.366841 -0.8993413 0.10613211 1.1047717
000120 41 08 85 3e de e9 e0 3d 02 ff 12 3d d1 09 42 3f
       0.2598286 0.109821066 0.035887726 0.7579623
000130 0a 14 0b 3f 2e d4 2a 3e f8 ce 92 bc e4 ae 64 3d
       0.5432745 0.16682503 -0.017920956 0.05583085
000140 fa 8c 36 3e 69 f8 36 3f be 57 80 be e9 1d 80 bd
       0.17827216 0.71472794 -0.25066942 -0.06255705
000150 ee 2d fa be 38 73 9e be f0 42 26 3e 6b 59 18 bf
       -0.48863167 -0.3094728 0.16236472 -0.5951144
000160 42 a5 31 bf da 7e 6f 3d 80 6e 01 3e c9 9b 29 3e
       -0.6939279 0.058470584 0.12639809 0.16563334
000170 d4 a7 6b 3f 2f b0 e2 bd 4a 00 a0 3e f5 ed 3c bd
       0.9205296 -0.110687606 0.3125022 -0.04612537
000180 ab c8 38 3f be a3 a8 3e 9d 2f e7 3e 59 21 9d 3e
       0.72181195 0.32937425 0.45153514 0.30689505
000190 04 27 13 3e b1 aa 59 bf 16 8b 04 3d 46 02 bd 3d
       0.14370352 -0.8502608 0.032359205 0.09228949
0001a0 88 3d 47 3f 63 38 9e 3e 4d c2 ab 3e 0e ee a9 be
       0.77828264 0.30902395 0.33546677 -0.33189434
0001b0 62 b1 fc bd 58 41 cd 3d 3f 3a 20 bf 41 63 37 3e
       -0.123385206 0.10022229 -0.62588876 0.17908956
0001c0 d9 d2 d2 be 42 b9 02 bf 17 8c 4c 3d b5 e1 a2 3f
       -0.4117649 -0.5106393 0.049938288 1.272513
0001d0 e3 23 e1 be 85 a8 7f 3e 09 a8 d6 3d 0d c4 85 3d
       -0.43972692 0.24966629 0.10481269 0.06531534
0001e0 ca 92 fc be 12 d0 8a be 06 43 1e be 68 e7 e3 3e
       -0.4933074 -0.2711187 -0.15455255 0.44512486
0001f0 f3 1d 99 3d e8 c1 6e bf c8 30 b3 bc 34 55 aa be
       0.074764155 -0.9326463 -0.021873847 -0.3326813
000200 27 01 22 bd 30 20 9f bd 3e 73 7a bf 64 d9 10 3f
       -0.03955188 -0.07769811 -0.97832096 0.5658171
000210 52 fc 35 3d 2b 91 fb 3e c3 8d dd bd 4d a4 4d be
       0.044430085 0.49134192 -0.108180545 -0.20082207
000220 f8 d4 b0 bf 85 4a 5e bd 72 67 9b bc 00 da ee 3e
       -1.3814993 -0.054270286 -0.018970225 0.46650696
000230 a8 bf 28 3e 1c 1e 6f be 2c 92 7f 3c 30 36 21 3e
       0.16479361 -0.2335133 0.015598815 0.15743327
000240 a0 49 4f 3e 94 38 ec 3e b0 1c e9 be ae 94 12 bf
       0.2024293 0.46136916 -0.455297 -0.5725812
000250 27 d6 22 bf 84 d2 0b bf bc aa 87 3e 4d df d5 3e
       -0.6360802 -0.54618096 0.26497447 0.41771927
000260 f7 b1 06 bf 56 2f 83 bf 39 20 a4 ba 57 85 83 be
       -0.526153 -1.0248821 -0.001252181 -0.25687668
000270 10 3c c3 3d d2 b8 fd be 60 b4 29 bd 1a 81 1a 3d
       0.095329404 -0.4955507 -0.041431785 0.037720777
000280 06 82 8c 3d c5 b1 b4 3e 38 d6 1b 3e 94 8b 0a 3e
       0.068607375 0.35291877 0.15218437 0.13529807
000290 62 2a 65 be b3 0e 9b be 6f 4b d5 be 11 6b 84 bf
       -0.22379449 -0.30284652 -0.41659114 -1.0345174
0002a0 d5 94 f5 bd ec a0 23 3f c3 c5 54 bf 10 b5 4c bb
       -0.11991278 0.6391742 -0.8311426 -0.0031235851
0002b0 d1 d7 45 be f4 3c 0e be 18 c8 8c be 4e b1 c5 be
       -0.19320609 -0.1389044 -0.2749641 -0.38611835
0002c0 98 4f 2c 3c 21 37 7b 3e 1e 59 c6 be 68 77 3f 3e
       0.0105170235 0.24532749 -0.38739866 0.18697894
0002d0 03 f5 98 bf 8c 33 9d be 50 bc bf 3e 3d 90 8a 3e
       -1.1949772 -0.3070339 0.3744836 0.2706317
0002e0 2c 1e 7d 3e 28 00 25 3e f3 47 df 3d f2 c2 00 3e
       0.24718541 0.16113341 0.10902395 0.12574366
0002f0 57 88 23 3e 0d 9b 1a be 86 e6 8f bd 24 8c d9 3e
       0.15969978 -0.1509821 -0.07026391 0.4248973
000300 3e 7b a6 3e 27 9f 0e be 23 20 c3 3e ff ac db be
       0.325159 -0.139279 0.38110456 -0.42905423
000310 f4 02 8c bd 63 4c b7 be 5b 52 0f be 5c e0 09 3e
       -0.06836501 -0.35800466 -0.1399626 0.13464493
000320 bc ef b6 be ba ce 85 bc 86 f0 a5 bd de 43 5c 3e
       -0.35729778 -0.016333926 -0.08102517 0.21510264
000330 56 b2 b7 3d 60 de 42 bd 45 e5 ad be f5 c1 e2 bd
       0.08969562 -0.047575355 -0.3396398 -0.110721506
000340 1c c6 ad bd bb 12 50 3e 5c 89 5d 3c be ee 74 3d
       -0.08485052 0.20319645 0.013521519 0.059797995
000350 0f 8b 9b 3d ed 5f b9 3d 93 c1 0b 3e 12 12 03 be
       0.07594883 0.090514995 0.13648061 -0.12799862
000360 f7 c7 8f 3e 58 0c e1 be 91 79 10 3e 5f 56 48 be
       0.2808225 -0.4395473 0.14108874 -0.19564198
000370 27 fa b9 be 7b 8a d9 bc 19 44 be 3d c5 36 1c bd
       -0.36323664 -0.02655529 0.09290332 -0.03813817
000380 71 3b 14 bd f5 56 8a 3e 42 71 b2 bb 6c b3 f0 3d
       -0.0361895 0.27019468 -0.0054456303 0.11752972
000390 68 b2 8e 3c dd 43 09 3f f6 dd 43 3e 85 33 50 3e
       0.017419055 0.53619176 0.1912764 0.20332153
0003a0 89 fc 8a be 72 ee 87 be 95 6a 21 bd a6 76 57 3d
       -0.27145794 -0.26549107 -0.039408285 0.052603386
0003b0 1c 48 8c 3e 73 b0 b5 bd c0 92 bc be b2 f1 3b 3d
       0.27398765 -0.08871546 -0.3683071 0.045884795
0003c0 35 85 a4 3e 58 23 48 3e 05 b6 cd bd 9c 52 85 bb
       0.3213288 0.19544733 -0.10044483 -0.0040686857
0003d0 78 97 2c 3e 70 3f ac be 63 69 54 be ec 32 29 3e
       0.16854656 -0.3364215 -0.20743327 0.16523331
0003e0 cd e6 2f bd 7e eb 8c 3e 17 1f 45 3f cf cb f7 3c
       -0.04294472 0.27523416 0.77000564 0.03024855
0003f0 a3 4f 01 3d d1 bb b3 bc 31 9e df 3d 2b 9f 50 be
       0.031570088 -0.021940144 0.109188445 -0.20373218

bias_ih_l1 f4 [150]
000000 67 55 b3 be 3d 25 b4 3e ab 75 f1 bc d4 f8 c8 bd
       -0.35026094 0.3518466 -0.029475054 -0.09813085
000010 8f 7e 0f 3e f8 68 8e 3d ce aa 02 bf 70 94 b1 be
       0.14013122 0.06953615 -0.5104188 -0.3468356
000020 b4 7f 74 3e cf d9 a0 3e 2d 39 7d 3e 87 71 74 3d
       0.2387684 0.31416175 0.24728842 0.05967858
000030 18 cf 1a bf 73 60 cc be cb c3 2a bf cf 93 5d be
       -0.6047225 -0.39917335 -0.66705006 -0.21638416
000040 d5 f8 8e be 30 9b a7 be 88 5d b0 3d 7c d9 54 be
       -0.2792422 -0.32735586 0.0861159 -0.20786089
000050 78 47 bc be 3d 3a 99 be 30 75 cb 3e 33 7e d1 bd
       -0.36773276 -0.29927245 0.39737844 -0.10229149
000060 32 79 03 3f bc 51 18 3e 61 ec 92 3d f8 01 07 bf
       0.51356804 0.14874929 0.07173992 -0.5273738
000070 72 58 b8 bd ec be 9d 3c 1f 89 8c 3c 32 e9 dd 3d
       -0.090012446 0.019256078 0.017155228 0.10835494
000080 c7 67 a6 3e 56 9a c2 be 84 67 2c 3f 1f 28 dd be
       0.3250105 -0.38008374 0.6734545 -0.43194672
000090 85 3a af 3d 06 43 b0 bd fe 55 60 bd 33 0a 9a 3d
       0.085560836 -0.08606534 -0.05476951 0.075214766
0000a0 fc 47 f9 bc b5 0f 05 3f 4b f0 9c be a5 42 8b bd
       -0.030429833 0.5197709 -0.3065208 -0.06799821
0000b0 6a a7 93 bd bc 51 0b be e8 f4 f3 3d 10 e9 13 be
       -0.07209666 -0.13605398 0.119119465 -0.14444375
0000c0 10 80 65 3f d0 c7 0d 3f 68 30 05 be d8 81 0f 3e
       0.8964853 0.55383015 -0.13006747 0.14014375
0000d0 d6 f1 24 be ce 61 31 bf 0a a4 82 3f ed f0 1e bf
       -0.16107878 -0.69289863 1.0206311 -0.62086374
0000e0 c5 40 a2 3e 4a a8 f2 be 84 45 64 bf b7 5d 56 bd
       0.3169004 -0.4739402 -0.8916857 -0.052335467
0000f0 3d 52 58 be 7d d0 1a bf bc ab 14 be 6a 36 b7 be
       -0.21125121 -0.6047438 -0.14518636 -0.35783702
000100 03 81 6f be 67 35 09 bf d2 f0 23 be a0 56 14 bf
       -0.23389058 -0.5359711 -0.16009834 -0.5794468
000110 1e d1 8c be f6 9f a1 be fe 3b 00 bf 0f c8 9d be
       -0.27503294 -0.31567353 -0.5009154 -0.30816695
000120 ef 1b 39 be 6a 62 bb bd b2 45 6b bf 58 4a 42 3a
       -0.18077062 -0.0914963 -0.9190322 0.0007411591
000130 61 ec e9 be cc c2 8d bf a4 25 2e bf 7a e1 7c be
       -0.45688155 -1.1075072 -0.68026185 -0.24695387
000140 4e c7 bc be 4b 55 96 3f 3f 56 19 bf 0a 13 98 3f
       -0.36870807 1.1744779 -0.59897226 1.188081
000150 f3 50 08 bf 01 73 5d bf 33 26 ab 3f 52 8e 3f bf
       -0.5324852 -0.8650361 1.3371032 -0.7482654
000160 28 48 3b bf ac e2 a2 be 03 97 2f bf b0 1d 06 bf
       -0.73156977 -0.31813562 -0.685898 -0.5238905
000170 36 19 ba be 4e ee ee bd d3 b9 90 bf e5 2d be 3e
       -0.3634736 -0.11666547 -1.1306709 0.3714439
000180 10 c3 cb bf 03 8c 41 be 35 4d 23 3f 71 be 63 3e
       -1.5918903 -0.18901066 0.63789684 0.22240616
000190 56 4e a1 be f0 75 a1 3e 5e be ad 3e f0 a1 b7 b9
       -0.31505078 0.31535292 0.339343 -0.00035025133
0001a0 33 8a 87 3e 04 33 cc be f3 9a 51 3d 40 ee 62 be
       0.26472625 -0.39882672 0.05117316 -0.22161198
0001b0 bc 28 dc be ab 33 0e 3f b9 69 22 bf 0a a2 bf 3e
       -0.42999828 0.5554759 -0.6344257 0.37428313
0001c0 0f e3 fe 3d 8f 18 91 3e 9c 76 5d be 8e 7a 48 3e
       0.12445652 0.2833905 -0.21627277 0.19578001
0001d0 02 83 f8 3d 67 0c 2c 3d 80 a6 b4 be a3 5e 00 bd
       0.12134363 0.042004015 -0.3528328 -0.031340253
0001e0 3d 28 61 be da 21 80 3d 00 20 60 3f dc 14 ea be
       -0.21988006 0.06256457 0.8754883 -0.4571904
0001f0 17 38 6c 3f 8a ba 6c 3e 4f 24 58 3e 90 ba 5c be
       0.92273086 0.23118034 0.211076 -0.21555543
000200 eb 9d dd bd 05 22 34 3d 95 5e 01 3f 94 07 4c bc
       -0.10821136 0.043977756 0.50534946 -0.012452979
000210 56 d4 cc be eb 5a 42 bd 00 3c 7b bf f6 05 f1 3e
       -0.4000575 -0.047449987 -0.9813843 0.4707486
000220 15 f2 0a be 5e 8c 31 bf 70 ed 8b be 9e 28 f0 3e
       -0.1356891 -0.6935481 -0.27329588 0.46905988
000230 c9 78 44 3f 5d 74 63 3e 58 71 a0 3e 80 1a 93 be
       0.76746804 0.22212358 0.31336474 -0.28731155
000240 72 70 fe 3e 30 17 3c bd e6 73 70 bf 13 b4 72 bc
       0.49695164 -0.04592055 -0.93926847 -0.014813441
000250 43 31 86 3e 0e 61 be bd
       0.2620946 -0.092958555
